{"modelTopology":{"class_name":"Sequential","config":[{"class_name":"Dense","config":{"units":12,"activation":"relu","use_bias":true,"kernel_initializer":{"class_name":"VarianceScaling","config":{"scale":1,"mode":"fan_avg","distribution":"normal","seed":null}},"bias_initializer":{"class_name":"Zeros","config":{}},"kernel_regularizer":null,"bias_regularizer":null,"activity_regularizer":null,"kernel_constraint":null,"bias_constraint":null,"name":"dense_Dense6797","trainable":true,"batch_input_shape":[null,6],"dtype":"float32"}},{"class_name":"Dense","config":{"units":6,"activation":"relu","use_bias":true,"kernel_initializer":{"class_name":"VarianceScaling","config":{"scale":1,"mode":"fan_avg","distribution":"normal","seed":null}},"bias_initializer":{"class_name":"Zeros","config":{}},"kernel_regularizer":null,"bias_regularizer":null,"activity_regularizer":null,"kernel_constraint":null,"bias_constraint":null,"name":"dense_Dense6798","trainable":true}},{"class_name":"Dense","config":{"units":2,"activation":"relu","use_bias":true,"kernel_initializer":{"class_name":"VarianceScaling","config":{"scale":1,"mode":"fan_avg","distribution":"normal","seed":null}},"bias_initializer":{"class_name":"Zeros","config":{}},"kernel_regularizer":null,"bias_regularizer":null,"activity_regularizer":null,"kernel_constraint":null,"bias_constraint":null,"name":"dense_Dense6799","trainable":true}},{"class_name":"Dense","config":{"units":2,"activation":"sigmoid","use_bias":true,"kernel_initializer":{"class_name":"VarianceScaling","config":{"scale":1,"mode":"fan_avg","distribution":"normal","seed":null}},"bias_initializer":{"class_name":"Zeros","config":{}},"kernel_regularizer":null,"bias_regularizer":null,"activity_regularizer":null,"kernel_constraint":null,"bias_constraint":null,"name":"dense_Dense6800","trainable":true}}],"keras_version":"tfjs-layers 1.1.0","backend":"tensor_flow.js"},"format":"layers-model","generatedBy":"TensorFlow.js tfjs-layers v1.1.0","convertedBy":null,"weightsManifest":[{"paths":["./model8.weights.bin"],"weights":[{"name":"dense_Dense6797/kernel","shape":[6,12],"dtype":"float32"},{"name":"dense_Dense6797/bias","shape":[12],"dtype":"float32"},{"name":"dense_Dense6798/kernel","shape":[12,6],"dtype":"float32"},{"name":"dense_Dense6798/bias","shape":[6],"dtype":"float32"},{"name":"dense_Dense6799/kernel","shape":[6,2],"dtype":"float32"},{"name":"dense_Dense6799/bias","shape":[2],"dtype":"float32"},{"name":"dense_Dense6800/kernel","shape":[2,2],"dtype":"float32"},{"name":"dense_Dense6800/bias","shape":[2],"dtype":"float32"}]}]}